models/net_cla_params.pkl (torch_old, 249390 bytes, 10 tensors)

conv1.weight f4 [6, 3, 5, 5]
00000000: c6c2 f3bc 8ee0 523d 16da 8f3e 2796 9b3e
00000010: b5ce 0a3e 35e9 3b3e eea1 233e 7acf 533c
00000020: df53 283e 9453 243e f53e 8e3d b2df ae3d
00000030: 1ee9 dbbc b32a cbbc 7ca5 423e 5653 f83d
00000040: 5d19 9f3c b00a 283d 9d1a 2a3d 1d99 a73d
00000050: 7100 e63d d26f ff3d 4877 cdbd 0d25 913c
00000060: c144 eb3d b29e e8be f6dc 10be 44b3 b13d
00000070: 2225 03bd fb0a 4fbe efcc b3be e36a 2dbe
00000080: b504 a93d 2121 3dbd de3e 58be e7c3 09be
00000090: 363c a0bb 9ef0 ac3d 4a72 e6bd 5912 93be
000000a0: 4a79 6fbe e55e 83bd 766e 20be 743b e2bd
000000b0: 342f 88be 5bae 51be 5b46 1bbe d5d2 1dbe
000000c0: a28a 94be 492b b4be d8a3 e03e 01ab d23e
000000d0: 9eb6 cd3e f7bf cd3e 7184 9e3e d7aa 473e
000000e0: 663d 2d3e 5b6a c2bd 2253 eb3d 4366 323e
000000f0: 71a7 623e 47c2 47bd 04a2 12bb dc65 51bd
00000100: a003 3c3e 63aa 1c3e 374f 85bc 0139 9b3c
00000110: 85a5 823d a862 823e 9e23 013f 3086 843d
00000120: 9948 243e 08e9 693e b569 673e ad49 363e
00000130: 9395 dc3e 08cb 3e3e 42eb 743d e69d e3bd
00000140: f69f 843d de03 123f 6743 2a3f 1050 4b3e
00000150: ad60 15be 8f38 00bf 2ad7 38be 95b4 37be
00000160: 769a c0be 6cb0 00bc 7e67 f2be 74a3 63bf
00000170: fbff 73bf 8229 14bf 9103 4a3e 2887 06be
00000180: 1841 f0be 18f8 92be 5a0b 1dbe 01e6 e73e
00000190: c231 b63c a8e9 bfbd 35e2 ccbd df09 78be
000001a0: e748 bfbe d07d 413e c563 4b3f 2948 3a3f
000001b0: e32e 0a3f d41a ac3d 71ec 98bc 652f 0f3e
000001c0: 20a7 643e 999d 763e 6a6f 283e 9d06 86be
000001d0: 6a57 3cbf 1b87 60bf 43ae 12bf 751d 073e
000001e0: 13c7 a2be 4d02 10bf ff0c 02bf 59a5 ccbe
000001f0: bde6 713e d78f f5be 58a6 0fbf 96dd 0ebf
00000200: c007 0ebf dd49 f5be e489 d23d 638c 203f
00000210: c008 0e3f 8036 e33e bcef 15bd 049d a83e
00000220: 2d28 ee3e 5c79 ee3e 63f2 943e e9dc 953e
00000230: 07a9 b63e 4dbf 57bd 3ff3 08be 9ba6 2ebe
00000240: 277c cb3e bac2 163e 68be acbd 6e06 b73d
00000250: 21c3 b33d cedb e73e dd24 4bbe 0dcb e13e
00000260: e68e c1be af99 0abf 1fb2 743f 7ddc c2bc
00000270: 12e1 153f 310c 10bf 0cb8 49bf bc8e 5d3f
00000280: 3a1d 903c e40c 3a3f d4ea 30bf 0025 82bf
00000290: 6bf2 5c3f 573d a8bd 0876 293f 4cf7 14bf
000002a0: 37d3 78bf 6f62 433f d1a1 373e 66b7 2f3f
000002b0: e4e8 d1be e30e 4cbf 4567 cb3e f989 b13d
000002c0: a4be fe3e 19c0 1fbf 91b6 65bf d2dd e73e
000002d0: b375 4c3e aa36 2b3f cdd5 3fbf 69be 6dbf
000002e0: 2b7b 323f 2d4f ee3d f70c 513f 89f4 36bf
000002f0: 8fb8 9cbf 4df3 253f 44db 1f3d 867d 413f
00000300: 58c5 46bf e686 88bf c79d 0e3f e6de 383e
00000310: 8180 243f 1631 30bf 9677 80bf 850c c33e
00000320: 1a38 e7bd 9a0e 0c3f e6ca 02bf 8033 1abf
00000330: 67ca 233f 0d84 e93c 8c8e 493f 7a2f dabe
00000340: 7514 39bf bcc9 463f 9428 f13d 0805 693f
00000350: 3875 27bf c2ae 5ebf 1839 7c3f 0dcb 1dbe
00000360: d435 2d3f d62c 01bf 3531 38bf f10a 573f
00000370: b328 bb3c 5cf8 4c3f 3a98 cebe 105b 1abf
00000380: 6524 313f 7110 a8bd 0173 c3bd 0830 de3d
00000390: 8550 51bc 4a97 a63d 010d dbbc 2b49 9a3d
000003a0: 165d 083d 2d8f 62bc 2810 433d 6a7c 0abd
000003b0: 3424 0cbc 63dd b8bd 779e cabd 8ba4 aebd
000003c0: 981e 29bd ccad 2bbd 990e 153d 0a14 b9bd
000003d0: 4c53 2d3c a1ea 8bbc c9db 0abd c8c5 8e3d
000003e0: c145 463d 930d 29bd 5644 0cbd c674 9dbd
000003f0: 90ed 8fbd e72c 7d3d 492b acbc f35c 1e3d
-0.029755961 0.051483683 0.28096074 0.30387995 0.13555415 0.1835068 0.1597974 0.012927884
0.16438244 0.16047508 0.06945602 0.0853876 -0.026844557 -0.024800634 0.1900844 0.1212527
0.019421274 0.041025817 0.041529287 0.08183501 0.11230553 0.124725 -0.10032517 0.017717863
0.11487723 -0.45433575 -0.1414679 0.0867677 -0.032017834 -0.20219032 -0.3511729 -0.16935305
0.08252851 -0.046174172 -0.21117732 -0.13453637 -0.00488999 0.084443316 -0.11252268 -0.28724936
-0.23386112 -0.06414584 -0.15667138 -0.11046496 -0.26598513 -0.20476668 -0.15163557 -0.15412457
-0.29012018 -0.35189274 0.43875003 0.4114609 0.40178388 0.4018552 0.3096042 0.19498764
0.16917953 -0.09492942 0.11490466 0.17421822 0.22134186 -0.04876926 -0.00223744 -0.05112253
0.18360758 0.15299372 -0.016273124 0.01894808 0.063792266 0.25465894 0.5044497 0.06470907
0.16043319 0.228428 0.22598918 0.17801543 0.43082866 0.18632138 0.05979467 -0.11114101
0.06475823 0.5703715 0.665091 0.1985476 -0.1458766 -0.500863 -0.18050829 -0.1793998
-0.37617844 -0.007854562 -0.47344583 -0.88921285 -0.9531247 -0.57875836 0.19727923 -0.13137496
-0.46924663 -0.28704906 -0.15336362 0.45292667 0.022240523 -0.09370738 -0.10004083 -0.24222516
-0.37360308 0.1889565 0.7944911 0.7276636 0.53977793 0.084035546 -0.018667432 0.13982923
0.22329378 0.24083556 0.16448751 -0.2617692 -0.73570883 -0.87706155 -0.5729715 0.1319483
-0.31792507 -0.5625351 -0.5080108 -0.399699 0.23623176 -0.47961304 -0.56113195 -0.55806863
-0.55480576 -0.47907916 0.10280207 0.62714213 0.554821 0.44377518 -0.03660558 0.32932293
0.46515027 0.46576965 0.29091176 0.29270104 0.35675833 -0.052672673 -0.13374041 -0.17055742
0.39743158 0.1472272 -0.084347546 0.08936773 0.08777452 0.45284885 -0.19838281 0.44100228
-0.37804335 -0.5414075 0.9558429 -0.023786778 0.58546555 -0.562686 -0.7879646 0.8654592
0.017592061 0.7267592 -0.6910832 -1.0167542 0.863074 -0.08214825 0.66195726 -0.58189845
-0.9719729 0.7632207 0.17932822 0.6863922 -0.40997994 -0.79710215 0.39727226 0.08668894
0.49754822 -0.6240249 -0.897317 0.45286423 0.19966774 0.66880286 -0.7493561 -0.9286867
0.6971919 0.11636195 0.8166041 -0.7146688 -1.2243823 0.6482437 0.039027467 0.7558216
-0.7764487 -1.0666168 0.557095 0.18053779 0.6425858 -0.688249 -1.0036495 0.3809549
-0.112899974 0.5470978 -0.5109085 -0.6023483 0.63980716 0.02850535 0.78733134 -0.42614347
-0.7229684 0.7765157 0.11775318 0.910233 -0.65413237 -0.8698541 0.9852462 -0.15409489
0.6766026 -0.5045904 -0.71950084 0.8400107 0.022846555 0.80066466 -0.40350515 -0.602952
0.6919616 -0.08206261 -0.0954342 0.10849005 -0.012775545 0.08134325 -0.0267396 0.07533487
0.0332919 -0.013828081 0.04762283 -0.033810057 -0.008553553 -0.09026601 -0.09893506 -0.08527478
-0.041288942 -0.041913792 0.036390875 -0.09037025 0.010578942 -0.017079653 -0.03390101 0.069713175
0.048406366 -0.04127271 -0.034244858 -0.076882884 -0.07027733 0.0618104 -0.021016734 0.038662862

conv1.bias f4 [6]
00000000: 58f4 e4be 74e3 923f 58da 733b 00c9 e3bd
00000010: d4bd 573f c965 5b3e
-0.4471767 1.1475663 0.0037209 -0.11122322 0.8427403 0.21425547

conv2.weight f4 [16, 6, 5, 5]
00000000: 8bd0 8cbf e87a febe 4f4f e3bd 4cc9 c73e
00000010: 61e0 643f 2be8 32bf b08b 93be bafd 273c
00000020: 33f4 e23e 791d 3f3f fda3 32bf b75e 5dbe
00000030: e3e5 a43c 1528 bd3e deb0 183f b796 49bf
00000040: 50f3 ebbd b0da f83d 0fde 593e b369 f03e
00000050: 2a28 43bf 68e1 a73c 92eb 3b3e fe2b 583e
00000060: 6a25 113f cc35 53be f8a9 e8bd 157a 90bd
00000070: f91a 4d3d b3dd b93e dbf4 acbd a0dd febd
00000080: 4b89 f1bd 0d8b 073e ed6a 593e fe96 54bd
00000090: 67fe c1bd 105d 0cbe 837f 123d 34e7 863e
000000a0: 6db5 4bbd ef94 38bd 8201 bdbc acdf 69bd
000000b0: c4ba 9b3d 0368 16be 6e01 c93d 6220 84bc
000000c0: 04ee 43bd 9559 fcbc 4dc2 2bbe 4d85 fbbd
000000d0: 9826 fbbc 0d61 8b3d 299c a23d ef05 08bc
000000e0: 3c66 59bd 15b3 5ebc 007a 53bc d61c 063e
000000f0: c2c1 43bd 7571 b03c 311a b7bb 7059 5d3c
00000100: efde c23c d9bd 17bd 1e9e 00bd 091d 6f3d
00000110: c016 ef3a 3219 973b 1b3f 3d3d 6a2e 133d
00000120: 3e1b 913d 3505 ca3c e8de e53c d875 5ebb
00000130: 5d81 9fbd 9647 94bd 20ef 9e3d b4b3 d23c
00000140: 4694 1cbb 5c51 84bd 686c 633d 793e 62bd
00000150: 0c59 81bc 5ff0 7bbd 7870 4ebc 7c10 623d
00000160: 26bf 0b3d 805a 003a 92bd 3fbd a1cf 45bd
00000170: dc5b dbbc dd0f 98bd 60e4 623c cc13 6b3d
00000180: 1a37 413c 6900 8abd 8c5d 813d c887 9ebd
00000190: 1bb1 a43d 0151 94bc 80c3 9fbb e2c9 cdbc
000001a0: f7be 0bbe 6d39 c83d 8670 d13c 6995 1cbd
000001b0: 1d35 96bd df2d fcbd 83a2 1b3c e26e 053d
000001c0: 7b18 9e3d ed3e d1bc 005f d8bd e9ea 45bc
000001d0: 170f 8f3d 734a 8b3d 6f0e 7dbc 6e75 d1bd
000001e0: 71d1 923d c673 a73d 3e51 c13d e012 fd3a
000001f0: 2251 0bbc b7b9 e6be c857 93be 39c7 48be
00000200: 5629 173e f622 a43e 86a6 93be 8a15 5cbe
00000210: c7f7 dabc 7c40 b43d 10d1 a93e 0790 70be
00000220: 4392 f4bc 093c ebb9 00a1 d93d 5c4d 013e
00000230: bdee 9fbe d71b 4dbd ed10 a63d b79d 7abc
00000240: 7818 3d3e 8056 6abe e5bc c23d 58c0 513e
00000250: b590 073e 2ba9 8b3e 8391 d3bd aa8c 95bd
00000260: 6605 163d 8203 883d 8c76 873d 69d9 37be
00000270: 2ccb d8bd 7669 e7bc f9c9 da3c 1c06 32bc
00000280: f3a6 e4bd 2671 d5bd b1a1 1abe 92af 60bd
00000290: 42ec 86bc e9a8 7abe 5c1b 61be a1c3 3cbe
000002a0: 15ea 19be 2d8a 07be b3c5 bbbd 669f 5bbe
000002b0: f353 42be 8ddb f1bd 418d 5abe bc18 103d
000002c0: 46eb af3d aaee 873d fd66 bd3d 52c4 973d
000002d0: 29e2 a93d 1680 a13d fd99 493d c795 ae3d
000002e0: 441c 663d bcba 07bc 7800 bc3d e110 1c3d
000002f0: f0c7 ecba 0a07 4d3d 5c76 703d 0488 1b3e
00000300: 271b 0c3e f3a8 033d 8393 cb3d ba86 413d
00000310: 8ee3 6e3b fbbf 5cbd 0d87 94bd 84c4 06bd
00000320: ed4c c8bd 42a0 03be 4994 e63c 2e80 523e
00000330: b77f b43d 8376 e8bd b753 32be 2c02 86bd
00000340: 33b7 773d 728e 5b3d 5642 4dbe 27d2 3cbe
00000350: c43d 00be e366 953d a332 e73d 5f0b 08be
00000360: 7ff7 eebd 5da2 62bd 736d 0fbd 59e5 dd3d
00000370: fd3f 0dbe 8009 05be 58d9 ecbd 0cbc 973d
00000380: bb68 cf3d 29c2 9abd 4097 203b 7839 9d3d
00000390: a8d4 a53d 2e87 86bd e47c ad3c 7069 ff3c
000003a0: e0ea 8bbd 1d70 8fbd 75ef 84bd 409f fdba
000003b0: cd23 65bd 2059 4b3c b054 bf3c d0df 93bb
000003c0: cc42 313d 48ff 8a3d 98c3 d43c 3e85 90bd
000003d0: 6ad4 29bd 67f7 053d ec25 2fbd 6084 4bbc
000003e0: e071 293b cc4c 743d e563 043e 1507 fb3d
000003f0: b6c7 283e a609 8d3e 6ffc de3e e142 4fbe
-1.1001142 -0.49703145 -0.11099111 0.39020765 0.89404875 -0.6988551 -0.2881751 0.010253364
0.44326934 0.74654347 -0.69781476 -0.21618162 0.02012915 0.36944643 0.5964488 -0.787456
-0.115210176 0.12151086 0.21276115 0.46955642 -0.7623316 0.020493224 0.18351582 0.21110532
0.56697714 -0.2062599 -0.11360544 -0.07054535 0.05007455 0.36301956 -0.0844514 -0.12444615
-0.11793765 0.13236637 0.21232195 -0.05190181 -0.094723515 -0.13707376 0.035766136 0.2634827
-0.049733568 -0.04506391 -0.023072008 -0.057098076 0.07603982 -0.14688115 0.09814726 -0.016128723
-0.04783441 -0.030804435 -0.16773339 -0.122812845 -0.030658051 0.0680562 0.079399414 -0.008302196
-0.053076014 -0.013592501 -0.012907505 0.13096938 -0.047792204 0.021538476 -0.005587839 0.013510093
0.023787944 -0.037046287 -0.031400792 0.0583773 0.0018241033 0.004611158 0.04620276 0.035932936
0.07085274 0.024660686 0.028060392 -0.0033944752 -0.07788346 -0.072402164 0.07760453 0.025720455
-0.0023892089 -0.064608306 0.055523306 -0.05523536 -0.015789531 -0.061508533 -0.012600057 0.055191502
0.03411784 0.0004896298 -0.046811648 -0.048293713 -0.0267772 -0.07424901 0.013848394 0.057391927
0.011792922 -0.067383595 0.06316671 -0.07740742 0.08041593 -0.018105032 -0.0048756003 -0.02512068
-0.13647066 0.09776578 0.02556635 -0.038228426 -0.07334349 -0.12313437 0.009499195 0.03257645
0.07719513 -0.0255427 -0.10564995 -0.012079933 0.069853 0.068013094 -0.015445336 -0.10227476
0.07168854 0.08176379 0.09439324 0.0019307993 -0.00850323 -0.45063564 -0.2877791 -0.19607247
0.14761862 0.32057923 -0.28837985 -0.21492592 -0.026729478 0.08801362 0.33167315 -0.23492442
-0.0298549 -0.00044867423 0.106264114 0.12627167 -0.3123683 -0.05007538 0.08108697 -0.015296391
0.18466365 -0.2288456 0.09508685 0.2048353 0.13238795 0.27277502 -0.103304885 -0.0730222
0.036626242 0.06641294 0.06614408 -0.17954029 -0.10585627 -0.02824853 0.026707636 -0.010865714
-0.111646555 -0.10421972 -0.15100743 -0.054854937 -0.016470078 -0.24478497 -0.21983093 -0.18434002
-0.15030701 -0.13236304 -0.091685675 -0.21447524 -0.18977337 -0.11809454 -0.21342947 0.03517984
0.08589797 0.066373184 0.09248159 0.07410492 0.0829509 0.078857586 0.04921912 0.085246615
0.0561793 -0.008284267 0.09179777 0.038102034 -0.0018064957 0.05005554 0.058706626 0.15188605
0.13682233 0.032143544 0.09940245 0.047247626 0.003645155 -0.053894024 -0.072523214 -0.032902256
-0.097802974 -0.12854102 0.02814688 0.20556709 0.08813422 -0.11350729 -0.17414747 -0.06543383
0.060477447 0.053602643 -0.20044836 -0.18439542 -0.12523562 0.07295015 0.11288955 -0.13285588
-0.116683 -0.055330623 -0.03501649 0.1083476 -0.13793941 -0.12991905 -0.115648925 0.07408914
0.101273976 -0.07556564 0.0024504215 0.07676977 0.080972016 -0.06568752 0.021177717 0.031178206
-0.06831908 -0.07003806 -0.06490985 -0.0019349828 -0.055942345 0.012411386 0.023355812 -0.0045127645
0.043276593 0.06786972 0.025972173 -0.07056664 -0.04146234 0.032706644 -0.042760774 -0.012421697
0.0025855228 0.05964355 0.12928732 0.1225721 0.16482434 0.27546424 0.43551967 -0.20240356

conv2.bias f4 [16]
00000000: 1497 2dbe 534d 713f 9a0c 5b3e b350 72bf
00000010: 1900 67be 3fef 87be af7c d3be 7244 a83f
00000020: 61f1 16be 39c8 85be 6c9a 80bf f7b6 0440
00000030: 0411 1e3d 2fde 16bf 5536 b4be c2b4 0abe
-0.16952163 0.9425861 0.21391526 -0.9465439 -0.22558631 -0.26549718 -0.41306064 1.3145888
-0.14740516 -0.2612932 -1.0047126 2.0736673 0.038590446 -0.58932775 -0.35197702 -0.13545516

fc1.weight f4 [120, 400]
00000000: 6389 953d a103 c93d 0ecf cc3c 2b7b 0a3e
00000010: ac96 bd3d c094 a1bc d49e 9b3d 382d 89bd
00000020: d772 443d 178a 0ebd 3c24 e6bc 9d43 b03d
00000030: 71a1 7f3d 2260 2a3d 576b 44be 39cb 283c
00000040: fdf8 993d 3175 913d 1932 7e3d c456 9dbd
00000050: 7019 bdbd b3d5 bd3d bcb0 583d 130b ae3d
00000060: a4e4 b1bd 3181 0e3d 682e 2cbd 4ea3 1dbc
00000070: 3d96 e83b b528 7fbd 002d 393d deb9 18bd
00000080: 6fcd 8bbd dc75 06bb b6b5 1e3d d73a 873d
00000090: f2b2 00bd 32ac d7bc 9dd9 193d 8b66 bf3d
000000a0: 243a af3b 5cce 283d adfc 983d 4711 e23d
000000b0: 9569 ca3d 8e34 653d 8794 253d bb8b ebbc
000000c0: 9329 8e3c eb0c f53c 6900 a43d bd3f d53d
000000d0: 7c46 993d b3a3 623d f59f 783d 262b b2bd
000000e0: 9d93 88bd 01f1 7ebd 08bf 0fbd 9d65 8fbc
000000f0: cc9f 87bd dffe e2bd 2b49 61be 7794 9ebd
00000100: 91e4 47bd 4656 a3bd c610 aebd 8f41 2dbe
00000110: 7e8a edbd 645a 583d 1c95 a33c 210f 16be
00000120: 8942 d2bd f1ef 8fbd 643a 353c 469e f1bd
00000130: c246 80bd d697 c4bd dbe2 91bd 7f72 d73b
00000140: e809 b8bd 4f5d 14be 1058 dfbd a982 25bd
00000150: a01c df3c fd28 dc3c b630 82bd 934f 4cbc
00000160: 949d 0b3d 5df5 743d 77f5 063e 2fb2 603d
00000170: 8735 39bd 7183 1a3d eee0 da3d f7d5 a8bd
00000180: 1ea2 12bd 9022 a6bd a44c 69bc 2cf4 a43d
00000190: b41a e6bd 9537 f3bc 25a5 e33d 841c 663d
000001a0: 44d6 20bc 4ead a3bd 69f4 013d 85ce 9d3d
000001b0: 0cab 5b3d 2408 0fbe d5a8 5cbd 25ff 123e
000001c0: e88d 413e 1989 85bc 7960 4fbe 5025 bbbd
000001d0: af28 64bb 7247 ba3d 030d 88bd 22c1 78be
000001e0: 06bb fabd 39b9 febc e1d5 2b3e 5997 ad3d
000001f0: b88e 14be 15c5 483e 5943 f83d e3bb 113e
00000200: fe71 343d 5e62 82bd e334 3d3c 2bbc 16bd
00000210: 5521 e1bc 45ef 4dbd d94e 9bbd 43b9 0abe
00000220: bb09 7a3d 1e1a 60bd a748 bb3c 3c1f ddbd
00000230: d2fc 8fbd e466 483c d69c 19bc 5fe1 75bb
00000240: c329 d2bd 0f01 a6bd 5527 71bd 9b5f 04bd
00000250: e835 c5bd 90ba cfbd 601e 673d 4362 c93d
00000260: 60c5 543d f5b1 8c3c d169 ebbd 481a a2bb
00000270: 8ab6 06bd 729f 9abc c838 d8bd b9dd 52be
00000280: e175 babd 0228 ab3d d76e 673d 6e5f 29bd
00000290: 6669 a6bd 5a6b 24bd a391 da3d a59a 1a3e
000002a0: bb9f 923d db97 733c 3b42 013c ac0e 623e
000002b0: e944 733e c665 8b3d 0079 0d3c 929a f6bd
000002c0: 4130 e8bd 0c44 afbc ac8c a7bd 6ab3 47bd
000002d0: 69a4 d8bd 97d3 babd 4476 f63c 9c87 9dbd
000002e0: 5e76 59bc a83a 1abe 7bc0 db3b 7dc2 fd3d
000002f0: 248d d93d c8ff 333d 6b55 00be 7e49 8cbc
00000300: 7c87 613c ddb9 9a3c 453c fdbc 7c41 00be
00000310: bb91 64bb f35a 793d f752 563d 6dd5 243d
00000320: 0e00 e6bd ad53 853c 4995 833d 62cb 943d
00000330: aa3f a13c 48ff 9dbc 28d3 883c 61ff 0f3c
00000340: 1d44 663d b0ab 98bd 62ff 753d 324b c23d
00000350: 3946 86bb f738 1a3d fb7a d13c 550c 763d
00000360: c45b 593d 40d1 ebbc d438 003a 2f80 4cbd
00000370: d859 1dbe d08a bebd 6498 c4bd b805 4c3d
00000380: e846 d43c 6a6e cb3d c93d 503d 50a8 b23d
00000390: d8a7 2dba 474c 823b 07c4 df3d ec6d 043d
000003a0: afaf 4eba e617 05bd a82e 983d 18da ad3d
000003b0: a8bc 1dbc 3b80 93bd 5fa4 9b3c c975 823d
000003c0: 1148 2b3d 252b 90bd f79d b4bd 71e8 35bd
000003d0: 51d5 d13c 94a2 e03d fb0a 42bd 6e36 d9bd
000003e0: a74d 02be 0b75 783d f0a7 543d 1332 5a3e
000003f0: c62d 923d 609a 1abd 46a7 6dbb 1a40 1c3e
0.07301595 0.09815145 0.025001075 0.13523547 0.09257254 -0.01972425 0.075986534 -0.06698078
0.047961082 -0.03479966 -0.02809345 0.08606646 0.062409822 0.041595586 -0.19181572 0.010302358
0.07518194 0.071024306 0.062059496 -0.07682565 -0.092333674 0.092692755 0.052902922 0.08498206
-0.08686188 0.034791175 -0.042036444 -0.009621454 0.007097988 -0.06229468 0.04520893 -0.03728663
-0.06826293 -0.0020517027 0.03874751 0.0660302 -0.031420656 -0.026327226 0.037561048 0.093457304
0.005347507 0.041212425 0.07470069 0.11038452 0.098834194 0.055958323 0.04042485 -0.028753152
0.017353809 0.029913386 0.08007891 0.10412548 0.07484147 0.055331897 0.060699422 -0.08699636
-0.0666878 -0.062241558 -0.03509429 -0.017504508 -0.06622276 -0.11083769 -0.22000568 -0.07743161
-0.048801962 -0.0797544 -0.08499293 -0.1691954 -0.11598681 0.05282058 0.019968562 -0.14654209
-0.10266597 -0.07028187 0.011061285 -0.117977664 -0.06263496 -0.09599273 -0.07123347 0.0065749283
-0.089862645 -0.1448872 -0.109054685 -0.04040781 0.02723533 0.026875013 -0.06356947 -0.012470144
0.034085825 0.05980431 0.13179575 0.05485743 -0.045217063 0.03772301 0.10687433 -0.082439356
-0.03579914 -0.08112061 -0.014239464 0.080543846 -0.11235562 -0.02968959 0.11115483 0.05617954
-0.00981671 -0.079920396 0.03172723 0.07705406 0.05362992 -0.13967949 -0.05387195 0.14355142
0.18901789 -0.016300725 -0.20251645 -0.09137976 -0.0034814288 0.09095658 -0.06643107 -0.24292424
-0.12242703 -0.03109418 0.16780807 0.08476133 -0.14507568 0.19606431 0.121222205 0.1423183
0.044054024 -0.06366418 0.011548254 -0.036800545 -0.027481714 -0.050277013 -0.07583398 -0.13547234
0.061044436 -0.054712407 0.022861792 -0.10796973 -0.070306435 0.012231562 -0.0093757715 -0.0037518365
-0.10261872 -0.08105671 -0.0588754 -0.03231774 -0.096294224 -0.10143006 0.056425452 0.09833195
0.051946044 0.0171747 -0.11494792 -0.0049469806 -0.032888927 -0.018874858 -0.10557705 -0.20592393
-0.09104515 0.0835724 0.05650219 -0.041350774 -0.08125572 -0.04014144 0.10672309 0.15098055
0.071593724 0.014867748 0.007889326 0.2207591 0.23756756 0.06806521 0.008634806 -0.12041201
-0.11337329 -0.021394752 -0.08181128 -0.048755087 -0.10578234 -0.09122389 0.03008569 -0.07691881
-0.01327285 -0.15061438 0.006706295 0.12390611 0.106226236 0.043945104 -0.12532584 -0.017124888
0.013765212 0.018887455 -0.030912528 -0.1252498 -0.0034876901 0.06087775 0.052325215 0.0402426
-0.11230479 0.016275251 0.06424958 0.07265355 0.019683678 -0.019286767 0.01670225 0.008788914
0.0562173 -0.07454622 0.060058005 0.094869986 -0.0040977267 0.037651982 0.025571337 0.060070354
0.05306603 -0.028786302 0.00048912806 -0.049926933 -0.15366304 -0.0930382 -0.09599379 0.04981014
0.025912717 0.09933169 0.050840173 0.08723509 -0.0006624437 0.003976378 0.10926061 0.032331392
-0.0007884455 -0.032493494 0.07430774 0.08488864 -0.009627499 -0.072021924 0.018999277 0.06370122
0.041816775 -0.07039479 -0.08819192 -0.044411127 0.025614413 0.10968509 -0.047373753 -0.10606085
-0.12724935 0.060658496 0.05191797 0.21308164 0.07137637 -0.03774488 -0.0036263033 0.15258828

fc1.bias f4 [120]
00000000: 12a0 0fbe 9ad7 3fbd bcde 12be 3541 623d
00000010: 8f66 f43d e3d6 7b3f 134b 72bd 0962 03be
00000020: 0fce 16be 7a3b 8fbe 3a9e 913d ed50 eebe
00000030: dd31 e63c e2e5 adbd df67 81be 220b 90be
00000040: 9f87 bfbc 2c45 0cbf 6516 6b3d 6573 393e
00000050: 9360 c43d cf30 793e d6a6 20be 2021 1d3e
00000060: d671 06be 5f6b 013e fe1e 1fbf 18f0 bc3d
00000070: c5eb 0b3f 98e9 aabe 109e 883e 1746 7abe
00000080: 3064 7b3e d750 093e e4cd c8be 5646 cd3e
00000090: e01f 15bd ca8d c8bd 7149 f7bd 8e73 f83d
000000a0: b83b 49be 071e 663d a85c 073f 610c 643e
000000b0: 636e 7fbc aa4b 4dbd 1b85 ee3c 6bc1 9f3e
000000c0: b402 573f 63bb 08bb 4ff5 c2be 73b9 8c3e
000000d0: 83da de3d 0c22 343e e4f0 fa3d ccb9 babb
000000e0: afcf c0bc 7414 fabd 1599 373f 0f1c d03d
000000f0: 7a32 203e f049 5f3e 89d5 49be 5785 adbe
00000100: cdf5 0fbe 9e48 8a3e 3ae0 0cbe 05fc 76bc
00000110: 5411 5dbd 4809 ad3d cacd 063d 28d7 82be
00000120: 11cb 35bd 255f 58be 90bd c43c 595d a83e
00000130: df2e 2a3e d6ab 00be f002 e93c dda3 8f3d
00000140: 7b85 e1bd 2378 a63e bc36 953e 31b1 0c3e
00000150: b486 733e ec41 0f3d 0bb8 c7be 5ba5 6ebe
00000160: 4bd9 3f3e 3e06 1b3e 362f 4abe fa25 c53e
00000170: ddb9 f23d b2dd 413e aa85 d4bb 6e7f d4be
00000180: 5986 153d a7c4 d13d 279c 533d 6b2d 9e3d
00000190: 5ca2 92bc a30d ff3d b37d 1e3c 85ca 58be
000001a0: b0f1 163d a8e7 65bf 719a 9abd 5cdc 1a3e
000001b0: b65f 91be 0f68 9dbd 5384 acbd 26e9 873d
000001c0: 8ba9 c8be 9087 84be b6ec 953c c9d1 d2be
000001d0: 79e6 aa3d d786 c4bd 4164 10bf 1c98 5f3d
-0.14025906 -0.046836473 -0.14342779 0.055237968 0.11933624 0.98374766 -0.059153628 -0.12830366
-0.14727043 -0.27975065 0.071102574 -0.46546116 0.028099949 -0.08491112 -0.2527456 -0.28133494
-0.023380099 -0.5479305 0.057394404 0.18110426 0.095887326 0.24335025 -0.15688643 0.15344667
-0.13129362 0.12638615 -0.62156665 0.09225482 0.5465663 -0.33381343 0.26683092 -0.244408
0.24549937 0.13409744 -0.39219582 0.40092725 -0.03640735 -0.09792669 -0.12074555 0.12131415
-0.19651687 0.05618098 0.5287576 0.22270347 -0.015590283 -0.050120987 0.029116204 0.31202254
0.839885 -0.0020863644 -0.3807778 0.27485237 0.108815216 0.17591113 0.122529775 -0.0056984182
-0.023536531 -0.122109324 0.7171796 0.10161602 0.15644255 0.21805549 -0.19710363 -0.33890793
-0.1405861 0.27008528 -0.1375741 -0.015074735 -0.053971604 0.08449036 0.0329111 -0.25554776
-0.044383112 -0.21130045 0.024016172 0.3288372 0.16619442 -0.1256555 0.028443784 0.07013676
-0.110117875 0.32513532 0.29143322 0.13739468 0.23781854 0.034974977 -0.390076 -0.23305266
0.18735234 0.151391 -0.19744572 0.38505536 0.11851857 0.18932226 -0.0064856606 -0.4150347
0.036505077 0.102425866 0.05166259 0.077235065 -0.017899685 0.12453773 0.009673524 -0.21171005
0.036851585 -0.89806604 -0.075489886 0.15123123 -0.28393334 -0.07685863 -0.08423676 0.066362664
-0.3919185 -0.25884676 0.01830135 -0.41175678 0.083447404 -0.09596031 -0.56402975 0.054588422

fc2.weight f4 [84, 120]
00000000: 3cea 2e3e 15ac 40be bf85 48bd 8e72 5bbe
00000010: c5e1 8ebd 7ee0 253e 3590 ce3c d3f3 db3d
00000020: 9752 67be 3df8 723e eb86 ad3d 0d75 513d
00000030: 6e9e 97be 8555 8cbd 90e8 f93c 1410 fc3c
00000040: 12ce a5bd d7e9 ccbd 00e3 553d 2e69 bcbd
00000050: 3898 e6bc bf1d 54be 3971 53be 110f 843d
00000060: 4e16 00bd 910a 55be 78b0 4dbe 819a 163e
00000070: 670f 103e 5f5a c13b f6a7 333d 91fa 02be
00000080: e4fd 48bd a53e 49be a79e 903a eae1 e33d
00000090: aad6 cf3c 84d9 b1bc b3fb 09be a799 863e
000000a0: d381 c33d 03c0 fabc 19a5 d4bd 50ad 4b3d
000000b0: 5516 893d ff19 08be 929a 8fbd e731 243e
000000c0: 17e2 163e 852b db3b 4b04 b9bd 8581 0a3d
000000d0: e9e0 983d 4c44 e13c 50be dd3d 06a3 923d
000000e0: 0899 a93d 849b 913d b61c 283a d936 693d
000000f0: 8fc9 46be 9e79 36be 599a 0ebe 731b 40be
00000100: 7925 843d 9dd3 0abb 2a9c eebd 3a19 0cbe
00000110: 4091 08be 25ee dbbd bb17 a1bc 9329 fbbc
00000120: 365b 723c eec8 2c3e 90e8 62bd 8088 debc
00000130: c9f1 bf3d 1c03 1abe 3a99 b03d afa5 ef3d
00000140: 8a01 e03d 3dbe 763b 3204 293e 0421 6c3e
00000150: f798 9abc 6b1d b4bd a332 cdbd d77c f8bd
00000160: ff34 6b3e dd1a e53d a6a2 7bbc 8a8e 233e
00000170: 64b2 f13b ba87 3ebe e7e2 a13d 71ea cfbd
00000180: 5edc 66be 5d24 88be b3e3 e83d cb2a 0d3d
00000190: 3ef0 2b3d e0df bb3d 331f 11bd a38c 7abe
000001a0: 0277 02bd 8981 febd c8e4 043d 7f00 44be
000001b0: f1b3 f13c fbc7 4bbc 6c47 f73d 29ae 983d
000001c0: c90b 2ebe 297d 7abd 8078 03be 67a7 8dbc
000001d0: f365 83be d3f2 05be 7dbc 41be e237 c83d
000001e0: 64fb 55bd 85fb c83d 8ad6 aebd d4e6 34bd
000001f0: d085 a3bd 9775 84bd 7094 abbd 1f19 603d
00000200: 81d7 57be 00f0 c9bd edd7 883c d512 4dbe
00000210: 6249 2bbe 0949 e83c 0c33 e03d 51df b6bd
00000220: bf89 773c 586a b9bd b07e 073e ebf0 ae3c
00000230: 43aa 353d 907d 043e 7bcd 32be 9147 093d
00000240: f85e 893c 673e 423e 907c 87be acae f9bd
00000250: b8ed 133e 1a87 2fbe 2911 cbbd 4cf4 3fbe
00000260: 0f5d b73c da7d 3f3d 07f6 67be 4b83 5c3d
00000270: 45ef 10be d903 efbc 087f 293b e804 013d
00000280: 7a75 a03c 74b6 63bd 6da5 06be 997d 1cbc
00000290: 7fd6 c03d 6f41 66bd e7b0 ea3a 1152 583e
000002a0: 1bf7 293e d6db b8bd f1ce 3fbe b35f 9d3c
000002b0: d054 2dbe bedc 013e 4320 4bbd 4ae1 3bbd
000002c0: 3a00 9539 2e91 a5bb f2c1 2dbd cd25 3d3c
000002d0: e86f 2b3e f414 fdbd 91ce 863e 52e1 b4be
000002e0: 9282 313e 1634 9dbd 2b4c 3abd 3435 2dbe
000002f0: f29c a8bc bc06 383d 459d 2dbd e8d6 3fbd
00000300: 2fa1 153e 4cc4 d13d 992a 18be 0347 763e
00000310: 1e94 cbbd f6d3 75be b90e 173d c914 3abd
00000320: a578 533d a0ab fbbb c34e ba3b a53f 0ebd
00000330: 408e 1ebd c78c c3bd 7348 89bd 9fe2 b6bd
00000340: 869b 723e 6b25 f13d 00e1 93bd 4e69 51bd
00000350: 1f9d 4abe cd7e 233c d13a a0bd a323 6abe
00000360: b6b4 0fbe 5f33 abbd d0a4 8abd d895 5ebd
00000370: cc1b cb3c d514 a53d ae8d 013e e69a 47be
00000380: 1b5f 243d a110 bbbe a5cd 59bd 547e 83bd
00000390: a0e0 0dbe db71 c93d 474d 3c3d 4ae0 97bd
000003a0: b1e7 943c 0ecd 24be e0ae 1dbd 1a15 b0bd
000003b0: e932 4fbd aaf6 58bd 9627 26be 1549 34be
000003c0: 66ef 12bd 35fc 26be 94e2 29be 896f b53d
000003d0: 0aea 193c 8cbd 7a3c 97fb 9cbd 80cf e3bd
000003e0: 791c 6a3d 18db b43c c634 a53c 46c8 aebd
000003f0: a424 63bd 22fc 8b3c ce2d 8fbd db20 823d
0.17081541 -0.18815644 -0.048955675 -0.21430418 -0.06976656 0.16198918 0.025215248 0.10739865
-0.225901 0.23727508 0.08472999 0.05113702 -0.2961306 -0.06852249 0.030506402 0.030769385
-0.080959454 -0.10005539 0.052218437 -0.09199749 -0.028148755 -0.20714472 -0.2064866 0.06448186
-0.03127127 -0.20804812 -0.20086849 0.14707376 0.14068376 0.0059006657 0.043861352 -0.12790896
-0.049070254 -0.19652803 0.001103361 0.11127074 0.025370914 -0.021710165 -0.13474922 0.26289102
0.095462464 -0.030609136 -0.103830524 0.04972583 0.066937126 -0.13291167 -0.07011904 0.16034661
0.14734684 0.0066885375 -0.09034022 0.033814926 0.07464773 0.027498387 0.10827315 0.071600005
0.082811415 0.071097404 0.00064129697 0.056937072 -0.19412826 -0.17819831 -0.13926066 -0.18760471
0.0645246 -0.002118326 -0.1165088 -0.13681498 -0.13336658 -0.10738782 -0.019664636 -0.030659473
0.014792254 0.16873524 -0.05539757 -0.027164698 0.09372289 -0.15040249 0.08622976 0.117015235
0.109377936 0.0037650012 0.16505507 0.2305947 -0.018871767 -0.087946735 -0.10019424 -0.12133186
0.22969435 0.111867644 -0.015358603 0.15972343 0.007376002 -0.18606463 0.07904606 -0.10152138
-0.22545001 -0.26590243 0.11371555 0.03446464 0.04197716 0.0917356 -0.035430145 -0.24467711
-0.031851776 -0.124270506 0.032444745 -0.19140814 0.029504748 -0.012437816 0.120741695 0.074550934
-0.16996683 -0.06115452 -0.12838936 -0.017291738 -0.2566372 -0.13080911 -0.18919559 0.09776284
-0.052241698 0.098135985 -0.08537014 -0.044165447 -0.07984507 -0.06467741 -0.083779216 0.054711457
-0.21078302 -0.098602295 0.016704524 -0.20026715 -0.16727212 0.028355138 0.109472364 -0.08929313
0.015108525 -0.090534866 0.13231921 0.021355113 0.044351827 0.12938523 -0.17461197 0.033515517
0.016768917 0.18969117 -0.2646222 -0.12191519 0.14446151 -0.17141381 -0.099153824 -0.18745536
0.022383241 0.04675088 -0.22652446 0.05383615 -0.14153774 -0.02917664 0.002586307 0.03149882
0.019587267 -0.055593923 -0.13149042 -0.009551429 0.09415912 -0.056214746 0.0017905504 0.21125056
0.1659817 -0.090263054 -0.18731286 0.019210672 -0.16926885 0.12681863 -0.049591314 -0.04586915
0.00028419663 -0.005052707 -0.04242129 0.011544657 0.16741908 -0.12357512 0.26329473 -0.35328156
0.17334965 -0.0767595 -0.045482796 -0.16914827 -0.02058265 0.044928297 -0.042386312 -0.04683581
0.14612268 0.10242519 -0.1486 0.24050526 -0.099403605 -0.24006638 0.036879275 -0.04542998
0.051628727 -0.0076803714 0.0056856587 -0.034728665 -0.03870988 -0.095483355 -0.06703272 -0.08929943
0.2369214 0.11774715 -0.0722065 -0.051125817 -0.197865 0.009978962 -0.07823718 -0.22865157
-0.1403378 -0.08359408 -0.06769717 -0.05434212 0.024793528 0.08060614 0.12651703 -0.19492683
0.040129762 -0.36536124 -0.053174634 -0.064205796 -0.13855219 0.09836169 0.045972135 -0.074158266
0.018176885 -0.16093847 -0.038496852 -0.08597775 -0.05058566 -0.052969612 -0.16226038 -0.17606004
-0.03587284 -0.16307147 -0.16590339 0.08859164 0.009394178 0.015303981 -0.076651745 -0.11123562
0.05715606 0.022077128 0.020166766 -0.08534293 -0.055454865 0.017088 -0.069911584 0.06353923

fc2.bias f4 [84]
00000000: b8c2 213f e64b 1d3e 9021 a9bd 8897 953d
00000010: eb03 7cbd 9f84 75bd efd4 3ebc 6175 cabd
00000020: b1ad 873d 5652 df3d 2592 acbd 5194 38be
00000030: cd54 df3e 1647 6b3f 3b2a 613f 6999 903e
00000040: cd88 3ebe 09eb 4d3f d399 b43e e814 cebd
00000050: 884c 933e 2622 d03d 2cdb 5e3d 5516 6c3e
00000060: a9bc a6bc c023 8c3d b7ed b53c 50ba 883e
00000070: 6415 e1bb 1f44 b939 6cbb 243f e815 9b3f
00000080: 0a15 243d 43d6 b7bd 3eab 48bd ac0b bc3d
00000090: b6cc 443e 6dad cc3e 0ffb 0dbe 74b5 62be
000000a0: 2ef2 9f3e 91b3 713e b0ed eabd 4f58 c53e
000000b0: 4bd1 293f f34a 7fbc 3e39 09bd 7a77 ec3e
000000c0: 4c42 6e3e bc58 80bd 21c9 6b3d 72ba 983e
000000d0: c40d c83e a65a d83f 31f4 c43d 5e3a 3d3f
000000e0: baef 013f b859 463f da80 3f3d 9e50 6c3e
000000f0: 0575 1e3f 886f 52bf 39e2 8e3b 83b2 fc3e
00000100: 0731 c73e 4fc3 b93e e90a 513f 2e59 283c
00000110: 41e2 cf3d 0bc7 953e bf76 9cbe eb9a 27be
00000120: 9fd1 ed3e 8c46 893f 49a4 22be 04d0 e03d
00000130: ee79 993e 4a13 053f bf6d ecbc b70d 0a3f
00000140: 386e 003e 3fcc 783e d029 9abd 022a 163e
0.6318774 0.15360984 -0.08258355 0.07304293 -0.061527174 -0.05994093 -0.011647447 -0.098856695
0.06624926 0.10904376 -0.08426312 -0.18025328 0.43619385 0.91905344 0.87955064 0.28242043
-0.18606873 0.8043676 0.3527361 -0.10062581 0.28769326 0.10162763 0.054408237 0.23055394
-0.020353632 0.06842756 0.022208078 0.26704645 -0.006869005 0.00035336704 0.64348483 1.211606
0.040059127 -0.08976414 -0.048991434 0.09181914 0.19218716 0.39976063 -0.13865303 -0.22139531
0.31239456 0.23603655 -0.114711165 0.38543937 0.6633498 -0.015581834 -0.033501856 0.46184903
0.23267478 -0.06266925 0.05756486 0.29829746 0.39073002 1.6902664 0.09616888 0.73917186
0.5075642 0.7748065 0.04675374 0.23077628 0.6189731 -0.82201433 0.004360464 0.49354944
0.38904592 0.3628182 0.8165727 0.010275168 0.101505764 0.2925342 -0.30559346 -0.1636769
0.4644899 1.0724654 -0.15882982 0.10977176 0.29975837 0.5198256 -0.028860925 0.5392718
0.12542045 0.24296664 -0.07527506 0.14664462

fc3.weight f4 [10, 84]
00000000: 951b 103e 6630 c03e 0fad b83e f799 653d
00000010: 0dc8 a9bd 8530 453e 0160 683d b29b 4c3e
00000020: 8dab 2c3e 94a7 e8bc 9e1b b63d 1632 88bd
00000030: 58c3 9c3c e8f5 4fbe 5943 39bd f5fb b03c
00000040: 0013 c1bd 6823 473d eb88 fd3d 8bd4 f7bd
00000050: ec58 9b3d aa42 abbd 161f 3c3c 4523 dabd
00000060: c61f 203e f928 413e 33fe 3b3e 5bd1 74be
00000070: e373 aebc a0f5 253d 1b55 94be 712f 16bd
00000080: 3594 0ebe 79a9 ad3d 6369 c83d 3f66 dcbd
00000090: 4389 5ebc 412b 9bbc cde9 b7bc 91c8 e73d
000000a0: 3de4 bf3d 4d7a f5bd e4b9 313d 1a90 3b3e
000000b0: 7507 5f3d 1faf 93bd 6a46 143e 5a21 643c
000000c0: 526a a23d 1841 923c aec6 0f3c 6bbd f83b
000000d0: cfc5 b03c 7492 a8be 8076 923d b95c 80bc
000000e0: 0ca4 52be b2e2 0e3e c8e9 11be 569f 95bd
000000f0: 3d7a 463e 91ce 0f3e 277f 203e b914 433d
00000100: 94bb 16be f7b3 b4bd c50e 9bbd 5e99 89bb
00000110: 22b6 593e 9516 0a3e 58ef f23d 3b8e fa3d
00000120: 6a29 0fbe e1b5 9cbd cfdc 8ebd 7e11 5c3e
00000130: 2876 223e 2943 d33d 8eda 17be 5408 4b3e
00000140: 9566 9b3c 7c98 843c 16e2 56be 8810 f7bd
00000150: 92c9 ffbd 1063 0cbb b088 32be 2fd1 a83d
00000160: 2bb0 053e 2054 903e 7676 3f3c f349 3f3d
00000170: 4196 53be e015 1cbd 9894 ba3c f458 b6bd
00000180: bbab 41bd a9ac 4abe c0fe 313d 6b35 d8bd
00000190: 2b4b 153e 4aab dbbd 6989 043e d0a3 8b3e
000001a0: b356 7d3e 3999 a73e 6c51 d0bd d715 a73d
000001b0: 4bf1 013e 6474 cfbd 9911 153e bd5d 0d3d
000001c0: 8b6e a03e da90 19be 785d 8cbe 8876 73be
000001d0: c64d 29be 3796 913e d4ce 0ebc 8685 d83d
000001e0: 30c7 e73d 09d7 393e c43d 263e b845 c5bd
000001f0: ab38 f53d 9cc8 86bb acfa e13c 2806 353d
00000200: 141b c6be 420d ab3d 30aa cf3c 60bc 5f3e
00000210: b0b4 813e ce36 23bd 208c 793e 23d2 6a3c
00000220: 0807 09be 5677 13be 6117 ce3d 9c7a a6bd
00000230: b4d3 21be 54cb bfbe 989a 5a3d 7156 5bbd
00000240: 0498 10be cd29 903e ce5c f2ba 256b 0f3d
00000250: 2bb6 46bd 580e fabd 7070 82be ab26 183e
00000260: e91f 84be b44f c93c a660 e13d 950c 4c3e
00000270: a224 3b3c b805 75be 0e08 ce3d 4aea 0bbe
00000280: 900f 0b3e 8bfe da3d 07de 1b3d b07b 123e
00000290: 6801 27bd 2081 1abe 3df8 253e a562 d13d
000002a0: 5715 0f3e d3e4 92bd 1cc5 e83d f222 b73c
000002b0: ba94 f1bd 41f6 fc3c 878d fbbd a03d 27bc
000002c0: 03e2 133e 85f5 c5bc a6b8 383e a1e6 f23c
000002d0: 8c71 74be 58c0 533c 1ead 603e 6b24 83bd
000002e0: 0d6d 7f3e 3c3e 99bd 7431 0cbe 2ca3 5dbd
000002f0: f516 bc3d 8fc2 2bbe 0b8a 553e 0d84 c6bc
00000300: 4925 443d 8960 cb3d e4d8 2dbe 76bc 073d
00000310: 8d2a a53d 3eac 9cbd 7552 253d 8f15 563d
00000320: 04ad b8bd 2703 07ba 2897 6d3e 9c1d 733b
00000330: 7406 3abd 24a0 dcbd 4f15 3a3e ad62 dd3d
00000340: 0d24 933e 4464 37be 3ba6 88bc 8106 d9bd
00000350: 1fee ec3d a09d a9bb 6691 673d 524e 26be
00000360: 3c68 65bd a68a aebd 1395 b6bd 7852 4fbd
00000370: be07 b13e a4f2 a43e 55c8 2f3e 0ada 903e
00000380: f88b ac3d 9345 063d 5059 b2bd d641 523c
00000390: 9d2b 3d3e 2033 103d 8331 fabd d232 54bd
000003a0: e9d0 13bd 0eed 8abd 5f65 c03d 14b7 ce3d
000003b0: 6e7d 34bd 23e0 033e 7023 edbd 14f1 33bb
000003c0: d4d8 6ebd 7e83 a5bd ff6c c03d 9474 b9bd
000003d0: 7a94 edbd e4e0 183d 43d5 0bbc a759 0ebe
000003e0: 08d4 753e 1c36 243e c855 85bd 78e1 2a3e
000003f0: 01af 09bd d754 8abd d1f4 f6bd 49c0 42bd
0.14073022 0.37536925 0.36069533 0.056055035 -0.0829011 0.1925679 0.05673218 0.19981268
0.16862316 -0.02840022 0.08891986 -0.06650178 0.019136116 -0.2030865 -0.045230243 0.021604517
-0.09427452 0.04861775 0.12379631 -0.12101086 0.0758532 -0.083623245 0.011482021 -0.106512584
0.1563712 0.18863286 0.18358688 -0.23907988 -0.021295493 0.04051745 -0.2897118 -0.036666337
-0.13923724 0.0847959 0.09785726 -0.107616894 -0.01358253 -0.018941524 -0.022450352 0.11317552
0.09369705 -0.11986218 0.04339017 0.18316689 0.05445047 -0.07211136 0.14479986 0.013923967
0.07930435 0.017853305 0.008775396 0.0075909398 0.021578697 -0.32924235 0.07151508 -0.015669214
-0.20570391 0.13953665 -0.14249337 -0.073057815 0.19382568 0.14043643 0.15673505 0.047627185
-0.14719993 -0.08823388 -0.075711764 -0.004199191 0.21260884 0.13485177 0.118620574 0.122341596
-0.13980642 -0.07651878 -0.0697571 0.21491048 0.15865386 0.10315544 -0.14829466 0.19827396
0.018969813 0.016185991 -0.20984682 -0.120637 -0.12489618 -0.002142135 -0.17434955 0.082430236
0.13055484 0.28189182 0.011685958 0.046701383 -0.20662786 -0.0381068 0.022775933 -0.08903685
-0.047282916 -0.19792427 0.04345584 -0.10557064 0.14579456 -0.1072603 0.12943043 0.27273417
0.24740104 0.32734087 -0.1017178 0.081584625 0.12689702 -0.101296216 0.14557494 0.034513224
0.31334338 -0.14996663 -0.2741506 -0.23775685 -0.16533574 0.28434917 -0.008716304 0.105723426
0.11317289 0.18148436 0.16234499 -0.096324384 0.11973699 -0.00411327 0.02758535 0.044195324
-0.38692534 0.08352138 0.025349706 0.21849203 0.25333166 -0.039847188 0.2436986 0.014332327
-0.13381588 -0.14400992 0.10063053 -0.08128855 -0.15803415 -0.37459815 0.05337009 -0.053549234
-0.1412049 0.2815689 -0.0018490793 0.03501429 -0.048513573 -0.12209767 -0.25476408 0.148585
-0.25805596 0.024574138 0.11004762 0.19926675 0.011422308 -0.23927963 0.1006013 -0.13663593
0.13580155 0.106930815 0.03805354 0.14304996 -0.040772825 -0.1508832 0.16207977 0.10223893
0.13972984 -0.07172551 0.11365721 0.02235553 -0.117959455 0.030879142 -0.122828536 -0.010207564
0.14441685 -0.024164924 0.18039188 0.029650988 -0.2387144 0.012924276 0.21941039 -0.064034306
0.24943943 -0.074825734 -0.1369074 -0.05411069 0.09184066 -0.16773437 0.2085344 -0.024232889
0.04788712 0.09930522 -0.16977268 0.033138715 0.080647565 -0.0765004 0.04036184 0.052266654
-0.09017375 -0.0005150311 0.23202193 0.0037096506 -0.04541631 -0.10772732 0.18172191 0.108098365
0.28738442 -0.17909342 -0.016680827 -0.10596944 0.115688555 -0.005176261 0.056535147 -0.16240814
-0.05600761 -0.08522539 -0.089151524 -0.050615758 0.3457622 0.3221637 0.17166264 0.2829135
0.084251344 0.032781195 -0.08708441 0.012833079 0.18473668 0.035205007 -0.12216475 -0.05180628
-0.036087904 -0.06783496 0.09394335 0.10093513 -0.04406493 0.1287847 -0.11579025 -0.0027456926
-0.058312252 -0.08081721 0.09395789 -0.09055439 -0.11600585 0.037323847 -0.008534732 -0.13901387
0.24006665 0.16036266 -0.06510502 0.16687572 -0.033614162 -0.06754463 -0.12058414 -0.04754666

fc3.bias f4 [10]
00000000: 7988 0cbf bf86 98bf 2901 d6bb 9442 293f
00000010: 3d17 633f eb94 b83d d0f7 923e 6c57 7f3e
00000020: 9c23 ff3c 205c efbe
-0.5489574 -1.1916121 -0.0065309 0.66117215 0.88707334 0.09012779 0.2870469 0.24935693
0.03114491 -0.46749973
